CV_HW1/cifar_lenet5.pth (torch_old, 249776 bytes, 10 tensors)

conv.0.weight f4 [6, 3, 5, 5]
-0.15908536 0.017049428 -0.16217883 -0.09351284 -0.08535155 -0.031116646 0.030973073 -0.07791551
-0.0546828 -0.0070487163 0.09717323 0.0012905574 -0.12836376 -0.06106156 -0.14273225 -0.037607837
-0.11469428 -0.035172332 -0.014802335 -0.10626804 -0.040169597 -0.078684404 0.072261885 0.014389868
0.046938285 -0.026053747 0.036288723 -0.10400794 -0.13603485 0.05445696 0.02975625 -0.075363725
-0.00027863102 -0.11654287 -0.034436595 0.122148424 0.111404955 0.10387097 0.043353323 -0.06688905
-0.02930117 0.010460829 0.11008093 0.11527663 0.025692215 0.19055294 0.0995404 0.18564394
0.031919923 0.07521994 -0.33130118 -0.25573575 -0.33211663 -0.36098722 -0.36927128 -0.13766879
-0.23822588 -0.3310294 -0.21735948 -0.28250137 -0.24791041 -0.19472365 -0.3044758 -0.19305839
-0.12114665 -0.0825775 -0.27262163 -0.18276249 -0.110326804 -0.17460766 -0.29016277 -0.20728922
-0.10857525 -0.12085223 -0.28369796 0.086298265 0.039174873 -0.09524997 -0.12362463 0.01645526
0.13653879 0.006684859 0.08354967 -0.036468763 0.08425927 0.14267696 0.11954842 0.15465559
0.035476405 0.14927329 0.20898023 0.20827122 0.24679026 0.255909 0.32357237 0.31623003
0.40630418 0.41219595 0.43389243 0.38824067 0.24318239 0.09127603 0.2760162 0.11895635
0.18285885 0.19041677 0.3330327 0.24155194 0.31895983 0.25247553 0.2573545 0.2950971
0.16213298 0.34678313 0.29569474 0.38482544 0.39897773 0.3144009 0.31136572 0.33730394
0.20444389 0.42553657 0.39796495 0.33923423 0.42643508 -0.020715421 0.097954206 -0.0056367153
-0.024587173 0.145198 0.016603174 0.03898534 -0.015021721 0.07722555 0.035625584 0.1138927
0.097694285 0.08874908 0.006294249 0.11761378 -0.025830269 0.15524925 0.09533694 -0.04090019
-0.061514754 0.019042648 0.033148818 0.13644505 -0.04427731 0.023744468 -0.19749562 -0.12470221
-0.15350926 -0.1319888 -0.19782192 -0.16858013 -0.14237599 -0.18272185 -0.06569956 -0.14452799
-0.060349047 -0.18705244 -0.16416034 -0.04097024 -0.213584 -0.029632764 -0.10346386 0.033669308
-0.16371839 -0.12507461 -0.094765164 0.015058179 -0.08914828 -0.06856933 -0.13060705 0.15031795
-0.046553575 0.13886586 -0.055907093 -0.013711286 0.025345337 0.055951424 0.11494447 -0.03122374
0.09904352 0.07725002 0.10704846 0.08023742 -0.013516184 0.07698396 0.089572996 0.10779492
0.12811707 0.0105852 -0.07969691 0.110074796 -0.040156614 0.13724603 0.06405023 0.11386271
0.29681423 0.16513622 0.29474327 0.25359598 0.27607018 0.110532194 0.14214896 0.095037475
0.10017974 0.23789261 0.21209271 0.09885737 0.16102454 0.20912439 0.2049698 0.26215607
0.12716483 0.2760782 0.2664274 0.28852996 0.21011122 0.20178446 0.10834314 0.2808553
0.25999805 0.2085428 0.29545134 0.22603309 0.2670641 0.12050451 0.3937123 0.29028413
0.37152383 0.26454598 0.31599194 0.39780307 0.3085802 0.24841848 0.1791799 0.26104498
0.3105402 0.30878708 0.28449738 0.3256533 0.22851627 0.2518021 0.26294667 0.21869394
0.15422522 0.23093282 -0.18251286 -0.035957772 -0.19364232 -0.26258942 -0.23311168 -0.083424486
00000000: 46e7 22be 3eab 8b3c 3512 26be a983 bfbd
00000010: cbcc aebd 56e8 febc 3ebb fd3c 2b92 9fbd
00000020: 12fb 5fbd ebf8 e6bb c202 c73d ec27 a93a
00000030: ca71 03be b01b 7abd 6728 12be ad0a 1abd
00000040: d6e4 eabd dd10 10bd 7e85 72bc 0fa3 d9bd
00000050: e088 24bd 4a25 a1bd 0afe 933d 7bc3 6b3c
00000060: 5c42 403d ab6e d5bc 7ca3 143d 1d02 d5bd
00000070: b84c 0bbe 430e 5f3d 61c3 f33c 4c58 9abd
00000080: 3915 92b9 07ae eebd 630d 0dbd f428 fa3d
00000090: 4828 e43d 4eba d43d 4193 313d 20fd 88bd
000000a0: 0209 f0bc e663 2b3c 1c72 e13d 2716 ec3d
000000b0: 7b78 d23c 4f20 433e d6db cb3d 7219 3e3e
000000c0: 77be 023d e90c 9a3d 4fa0 a9be ccef 82be
000000d0: 310b aabe 51d3 b8be 2011 bdbe 0cf9 0cbe
000000e0: 7cf1 73be af7c a9be 7c93 5ebe 05a4 90be
000000f0: 3adc 7dbe a365 47be 41e4 9bbe 19b1 45be
00000100: bc1b f8bd 641e a9bd 1095 8bbe 1726 3bbe
00000110: 05f3 e1bd 5acc 32be 3790 94be a043 54be
00000120: b35c debd 6081 f7bd dc40 91be 25bd b03d
00000130: d575 203d 6b12 c3bd e92e fdbd 2ecd 863c
00000140: d3d0 0b3e a90c db3b 171c ab3d 4560 15bd
00000150: 2090 ac3d e919 123e cdd5 f43d 095e 1e3e
00000160: b54f 113d 19db 183e eafe 553e 0d45 553e
00000170: 96b6 7c3e 8106 833e 47ab a53e e7e8 a13e
00000180: 1a07 d03e 590b d33e 2627 de3e 7bc7 c63e
00000190: ce04 793e edee ba3d ff51 8d3e 639f f33d
000001a0: 5a3f 3b3e 9dfc 423e 4383 aa3e 6459 773e
000001b0: b44e a33e 7944 813e f8c3 833e f816 973e
000001c0: 3006 263e 8f8d b13e 4d65 973e d707 c53e
000001d0: cf46 cc3e 28f9 a03e 546b 9f3e 1ab3 ac3e
000001e0: bd59 513e eedf d93e 10c2 cb3e 1cb0 ad3e
000001f0: b355 da3e 63b3 a9bc 379c c83d 32b4 b8bb
00000200: 0a6b c9bc c9ae 143e 6103 883c 18af 1f3d
00000210: aa1d 76bc 6e28 9e3d 22ec 113d 9340 e93d
00000220: f113 c83d 14c2 b53d fd3f ce3b 7edf f03d
00000230: 009a d3bc a9f9 1e3e 0340 c33d f586 27bd
00000240: e5f6 7bbd 54ff 9b3c 0ec7 073d 40b8 0b3e
00000250: 205c 35bd c283 c23c 4b3c 4abe df63 ffbd
00000260: 8831 1dbe 1228 07be d491 4abe 45a0 2cbe
00000270: 03cb 11be 701b 3bbe 7e8d 86bd 25ff 13be
00000280: 9030 77bd ad8a 3fbe a619 28be 69d0 27bd
00000290: c4b5 5abe 69c0 f2bc dce4 d3bd d4e8 093d
000002a0: cba5 27be 8f13 00be 3d14 c2bd 95b6 763c
000002b0: 6093 b6bd 146e 8cbd dbbd 05be f3ec 193e
000002c0: f6ae 3ebd da32 0e3e d6fe 64bd 4da5 60bc
000002d0: 06a1 cf3c 522d 653d 0268 eb3d eec8 ffbc
000002e0: 54d7 ca3d 4235 9e3d 393c db3d 8453 a43d
000002f0: fc72 5dbc c4a9 9d3d 0c72 b73d 95c3 dc3d
00000300: 1f31 033e 8c6d 2d3c 2238 a3bd e56e e13d
00000310: 437b 24bd 398a 0c3e c42c 833d da30 e93d
00000320: 09f8 973e 7819 293e 97e8 963e 55d7 813e
00000330: 1259 8d3e b45e e23d 7f8f 113e 02a3 c23d
00000340: 092b cd3d 1f9a 733e d52e 593e bc75 ca3d
00000350: 9ee3 243e b424 563e 9ae3 513e 5239 863e
00000360: 7f37 023e 1f5a 8d3e 2c69 883e 33ba 933e
00000370: 6527 573e 96a0 4e3e 02e3 dd3d 44cc 8f3e
00000380: 771e 853e 3e8c 553e 6645 973e 3875 673e
00000390: a0bc 883e 12cb f63d a994 c93e 1fa0 943e
000003a0: 5f38 be3e 9272 873e b2c9 a13e d8ac cb3e
000003b0: 39fe 9d3e 6a61 7e3e f07a 373e b0a7 853e
000003c0: 20ff 9e3e 5719 9e3e a4a9 913e 08bc a63e
000003d0: 2b00 6a3e 34ec 803e f2a0 863e 4ef1 5f3e
000003e0: 37ed 1d3e a779 6c3e a7e4 3abe 7548 13bd
000003f0: 2c4a 46be 1f72 86be d4b4 6ebe 75da aabd

conv.0.bias f4 [6]
0.13814014 -0.0069363625 0.2722272 -0.23485096 0.2796992 -0.64961565
00000000: 9c74 0d3e 6d4a e3bb 5d61 8b3e c57c 70be
00000010: bc34 8f3e 364d 26bf

conv.2.weight f4 [16, 6, 5, 5]
-0.102483 -0.15808667 -0.0102674775 0.028887343 -0.037565175 0.027194576 -0.1137881 -0.0477706
-0.034138504 0.08198743 0.04693549 -0.07887899 -0.07996137 -0.015042425 0.0050397315 -0.06382877
-0.10380926 -0.12533867 -0.009005658 0.0753631 -0.03184451 0.015866103 -0.025512787 0.027144829
-0.037039183 0.041471682 0.17704539 0.048368208 -0.1281635 -0.217659 0.05290398 0.12550773
0.07590122 -0.046543762 -0.13273613 -0.03125148 0.13148054 -0.014619123 -0.06744346 -0.05522242
-0.034161285 -0.09251524 0.015154949 -0.19454719 -0.17188884 -0.05674793 0.02686427 -0.1623414
-0.11479157 -0.23102908 0.108290605 0.0039177528 0.011443662 0.09923834 0.00075160194 0.04272843
-0.05169149 0.05944965 -0.015005004 -0.085505344 -0.074045345 0.0036608062 -0.05276369 0.03565274
-0.087909035 -0.025177889 0.0565418 0.058299012 -0.06693755 0.0259338 0.09933437 0.04380861
0.038776282 0.01766474 -0.0339286 0.024351306 0.07673903 0.1023446 0.080165565 -0.04138835
0.015759535 0.020425484 0.13896212 0.0890503 0.022349574 0.018387308 0.099584945 0.14168864
0.10642302 0.027354943 0.029507717 0.0094996635 0.14010492 0.018776016 0.019246088 -0.051367454
-0.087723844 0.045402553 -0.06799162 0.064803496 -0.010993314 -0.10669621 -0.106418215 -0.009973388
-0.09956162 -0.013129193 -0.019043783 -0.04607664 0.011505583 -0.036736075 -0.0015686641 -0.023240909
-0.05846747 0.025005285 -0.040794484 -0.06787931 -0.027491694 -0.08778736 -0.0823438 0.0055038496
-0.008485617 0.0044529447 -0.05757571 -0.10144093 -0.081986986 -0.118291885 -0.10822957 -0.031163692
-0.03275664 -0.015882276 0.07193362 0.037509166 -0.020321768 0.053038467 0.01451468 0.054821994
-0.057414673 -0.0007453756 0.053325694 0.07514166 -0.019609844 0.07902604 -0.040327482 0.07302849
0.010193974 0.048975836 -0.06875707 0.098097466 0.11392772 0.114548594 0.05767933 0.026184857
0.13548654 0.106854744 0.108455256 -0.013743442 0.06461735 0.045482405 0.014851355 0.07064907
-0.07007819 -0.06142921 0.046202477 0.10985764 0.04484183 -0.07430145 -0.017145319 -0.094084494
0.029677326 -0.00077584037 0.01803476 -0.024179136 -0.055081 0.004196626 -0.106895626 -0.10324661
-0.1410585 -0.053675067 -0.09600453 -0.20798095 -0.08918826 -0.056708902 0.04713035 -0.13902704
-0.19943003 0.047599945 -0.09333591 -0.051228963 -0.0658894 -0.15462042 0.108464375 -0.09614175
-0.00030701107 0.010545713 -0.07392501 0.23374309 0.13643149 0.05494246 0.111784965 0.1567669
0.0008032586 -0.040009186 -0.100682296 -0.12840892 -0.09800041 0.05350313 -0.0034429028 0.04690965
-0.056282755 -0.101838425 0.10362744 0.031622466 0.053242184 0.06041115 -0.01972447 0.10398982
0.10101389 0.13014334 0.12465064 0.11404837 0.03229779 0.091929324 0.08958546 0.083141975
0.011135099 0.096218646 0.03064013 0.05637117 0.025524743 0.13713284 -0.05036011 -0.009560099
-0.046299875 0.02954567 0.07585831 0.04756258 -0.09804868 -0.06819598 0.042303517 -0.021429751
0.0708978 -0.11446181 -0.0815763 -0.07131176 -0.0070967115 0.03620999 -0.05543463 0.00879586
0.00082111027 -0.062103115 -0.0016612752 0.01755656 0.033464734 0.12832691 0.049368974 -0.04467788
00000000: 9be2 d1bd 79e1 21be ec38 28bc 26a5 ec3c
00000010: f1dd 19bd 29c7 de3c bc09 e9bd 1bab 43bd
00000020: d1d4 0bbd 07e9 a73d 6e3f 403d 4f8b a1bd
00000030: c9c2 a3bd 8174 76bc 5524 a53b a8b8 82bd
00000040: f399 d4bd c858 00be 788c 13bc f857 9a3d
00000050: 646f 02bd a1f9 813c 3100 d1bc d55e de3c
00000060: 66b6 17bd 36de 293d 634b 353e be1d 463d
00000070: 4b3d 03be 00e2 5ebe d8b1 583d 1985 003e
00000080: 1972 9b3d aca4 3ebd fbeb 07be 8d01 00bd
00000090: d6a2 063e 0c85 6fbc cc1f 8abd e730 62bd
000000a0: b4ec 0bbd a178 bdbd 774c 783c 6137 47be
000000b0: a103 30be 8470 68bd 7512 dc3c d33c 26be
000000c0: d817 ebbd e392 6cbe 77c7 dd3d 7e60 803b
000000d0: 337e 3b3c 793d cb3d 2707 453a 0204 2f3d
000000e0: 75ba 53bd 7a81 733d 8cd7 75bc 6d1d afbd
000000f0: 16a5 97bd 23ea 6f3b bd1e 58bd 9c08 123d
00000100: a709 b4bd dc41 cebc 6098 673d f2ca 6e3d
00000110: 8e16 89bd 1f73 d43c d16f cb3d a870 333d
00000120: e1d3 1e3d a5b5 903c b7f8 0abd 647c c73c
00000130: 5a29 9d3d 0c9a d13d d82d a43d d586 29bd
00000140: 241a 813c 5853 a73c 164c 0e3e 0160 b63d
00000150: 7416 b73c fba0 963c 31f3 cb3d d416 113e
00000160: 50f4 d93d 7917 e03c 2bba f13c 7aa4 1b3c
00000170: aa77 0f3e 29d0 993c f9a9 9d3c ae66 52bd
00000180: 8fa8 b3bd 07f8 393d 313f 8bbd b2b7 843d
00000190: 4d1d 34bc 8b83 dabd cbf1 d9bd 6c67 23bc
000001a0: f6e6 cbbd d41b 57bc b501 9cbc dcba 3cbd
000001b0: ea81 3c3c 9178 16bd a29b cdba b863 bebc
000001c0: 967b 6fbd e2d7 cc3c 1e18 27bd 4f04 8bbd
000001d0: 4336 e1bc dcc9 b3bd dea3 a8bd a359 b43b
000001e0: 4207 0bbc 02ea 913b 82d4 6bbd 43c0 cfbd
000001f0: cbe8 a7bd 0443 f2bd 77a7 ddbd 004b ffbc
00000200: d42b 06bd 8c1b 82bc ef51 933d 36a3 193d
00000210: d679 a6bc dd3e 593d fbce 6d3c 078d 603d
00000220: a62b 6bbd 4f65 43ba 0b6c 5a3d dfe3 993d
00000230: d3a4 a0bc 68d8 a13d 6e2e 25bd f68f 953d
00000240: a004 273c e39a 483d 82d0 8cbd 53e7 c83d
00000250: f052 e93d 7498 ea3d 2941 6c3d a081 d63c
00000260: fcbc 0a3e a9d6 da3d ca1d de3d 2c2c 61bc
00000270: 1a56 843d c24b 3a3d 1953 733c 76b0 903d
00000280: 2785 8fbd 329d 7bbd cf3e 3d3d 0bfd e03d
00000290: 11ac 373d 5c2b 98bd 5774 8cbc 5faf c0bd
000002a0: dd1d f33c c461 4bba a2bd 933c 5313 c6bc
000002b0: 9d9c 61bd da83 893b 18ec dabd f572 d3bd
000002c0: a471 10be 63da 5bbd 069e c4bd f5f8 54be
000002d0: 56a8 b6bd 9847 68bd c10b 413d 1b5d 0ebe
000002e0: 6337 4cbe 29f8 423d e626 bfbd 76d5 51bd
000002f0: 06f1 86bd d154 1ebe 9222 de3d f7e5 c4bd
00000300: 54f6 a0b9 edc7 2c3c ff65 97bd 595a 6f3e
00000310: b2b4 0b3e 580b 613d 84ef e43d 8187 203e
00000320: c691 523a ace0 23bd 8532 cebd a17d 03be
00000330: 70b4 c8bd 1926 5b3d 53a2 61bb 5524 403d
00000340: bf88 66bd aa90 d0bd a03a d43d 8f86 013d
00000350: 7a14 5a3d af71 773d 3695 a1bc 9df8 d43d
00000360: 5fe0 ce3d 4c44 053e d648 ff3d 3192 e93d
00000370: b04a 043d 7145 bc3d 9578 b73d 5746 aa3d
00000380: fe6f 363c 480e c53d 0301 fb3c 75e5 663d
00000390: 4419 d13c 8d6c 0c3e 6746 4ebd f6a1 1cbc
000003a0: f0a4 3dbd c309 f23c 9a5b 9b3d fbd0 423d
000003b0: bfcd c8bd 55aa 8bbd 7446 2d3d 728d afbc
000003c0: de32 913d f46a eabd 7a11 a7bd e60b 92bd
000003d0: 888b e8bb ed50 143d 6c0f 63bd 831c 103c
000003e0: c73f 573a d65f 7ebd 25bf d9ba c6d2 8f3c
000003f0: 5112 093d 2168 033e 1f37 4a3d 2700 37bd

conv.2.bias f4 [16]
-0.047261834 -0.008329859 -0.14709762 0.17570888 -0.06956212 -0.14999607 -0.28408033 -0.008838499
0.13462642 0.046622705 -0.05076674 -0.014564467 -0.022363074 -0.079881795 -0.10108177 -0.08944139
00000000: a095 41bd f679 08bc c2a0 16be 07ed 333e
00000010: 9676 8ebd 9298 19be fa72 91be 5acf 10bc
00000020: 82db 093e 73f7 3e3d c9f0 4fbd cd9f 6ebc
00000030: c432 b7bc 1199 a3bd f603 cfbd 0c2d b7bd

fc.0.weight f4 [120, 400]
0.003940995 0.019521652 -0.008980053 0.0077255648 -0.04806751 0.055716548 0.002740674 0.008938259
-0.031484608 0.027955603 -0.06561433 -0.034518663 -0.040027574 0.03823585 0.00063702266 -0.058986455
0.0018770405 -0.055918798 -0.030943103 -0.019064153 0.08621374 0.06322665 -0.0029918393 0.06204211
-0.008376478 -0.08003459 -0.07152644 0.0052504833 -0.011112979 -0.053972572 -0.017779514 0.030793922
0.010952136 -0.0015352708 -0.0039224704 -0.00024096461 0.024970368 0.047104236 0.018642223 -0.0069436957
0.032316417 0.04139261 -0.023042094 -0.039523076 -0.05904674 -0.10369277 -0.011370745 0.007682209
-0.06685438 -0.011594375 -0.039270256 0.04297383 0.066830754 0.020409288 -0.031194435 0.009146476
-0.006573641 0.048975933 -0.00441298 -0.031209523 -0.044912506 -0.036633544 -0.009276083 -0.031190688
-0.009297915 -0.031178355 0.02626482 -0.027943067 -0.0013254484 -0.032361727 -0.038802907 -0.034204222
-0.043535978 0.038936265 -0.028714797 -0.01189467 -0.04409358 -0.019269628 0.036338795 -0.004573279
0.02178453 -0.009139452 -0.0072239046 -0.051353578 0.0625049 0.071850225 -0.035054777 -0.04053475
0.0017402123 -0.02859802 -0.001956109 0.0036369793 -0.005877081 0.044663884 0.015317116 0.017736798
-0.05189177 -0.052032236 0.017438646 0.030630453 0.0075120465 0.007072014 0.028349599 0.020779667
0.03088136 -0.01477417 -0.022310078 0.06641129 -0.001969681 0.033287816 -0.08380445 -0.08891748
0.0013412414 -0.045834284 -0.074269004 -0.022907527 -0.08590534 -0.013187944 -0.0020946208 0.08120748
0.0009122176 0.08093392 0.06358907 0.06418987 -0.013271624 0.011110068 -0.06310934 0.030170364
0.010568231 0.017877316 -0.04155122 0.010693313 -0.075984426 -9.428772e-05 -0.021296702 0.050211176
0.01701995 0.008448816 0.013202072 -0.006429942 0.05887605 0.06356174 -0.014266721 0.016994918
-0.00962545 -0.07805676 -0.023588201 -0.0023080069 -0.018547658 -0.020471536 -0.044269495 0.009310348
-0.011503358 0.035981636 0.0013184123 -0.018777344 -0.019270645 0.028021542 0.029585931 0.01838426
0.007240688 -0.020390688 0.013494395 -0.036888566 0.024272187 -0.06388785 -0.027794192 -0.0125114005
-0.054867204 -0.049492862 0.04044795 -0.027972326 -0.018889097 -0.0053635687 0.04835076 -0.019288128
0.00526162 -0.0042733164 -0.009585692 -0.03282232 -0.03856475 0.042131264 0.028152473 0.0089697335
-0.012228294 -0.025643406 -0.0039358614 -0.011461497 -0.06272226 -0.035539046 0.059657454 0.02981438
0.056411374 -0.014638601 0.097955056 0.010270928 -0.0012830814 -0.028593212 -0.08550349 -0.02172881
0.050522827 0.013460983 0.03577182 0.007894458 0.044245556 0.05008259 -0.015241932 0.07948656
0.03870345 -0.02870603 -0.0094539225 -0.04699169 0.054950323 -0.034563273 -0.06636882 -0.050033323
-0.025812171 0.04353365 0.016282633 -0.04603488 0.032825753 0.03183 0.017414462 -0.011731752
-0.007909909 0.010394975 -0.015145934 0.03204303 0.030850774 0.015107156 -0.008846604 -0.0023514715
0.024188189 -0.03209337 -0.009495405 0.012260143 0.015144372 0.05022926 0.057532262 0.01964342
0.0011684372 -0.022767851 0.014641673 -0.031145604 0.011999018 0.0101724705 -0.036228605 0.04617566
-0.009540991 -0.047653247 0.017804196 -0.028766064 0.030079445 -0.004094886 0.050253607 -0.011327807
00000000: 7623 813b dfeb 9f3c 1221 13bc bc26 fd3b
00000010: 70e2 44bd 0937 643d e19c 333b c771 123c
00000020: 01f6 00bd 2603 e53c ce60 86bd 7163 0dbd
00000030: f4f3 23bd 329d 1c3d defd 263a c89b 71bd
00000040: 0707 f63a 1c0b 65bd 647c fdbc 6d2c 9cbc
00000050: d490 b03d f97c 813d bc12 44bb de1f 7e3d
00000060: 7f3d 09bc 2de9 a3bd 747c 92bd 3f0c ac3b
00000070: 3613 36bc 5812 5dbd 58a6 91bc 8943 fc3c
00000080: 9670 333c 243b c9ba 1188 80bb 72ab 7cb9
00000090: a88e cc3c 5ff0 403d 93b7 983c f187 e3bb
000000a0: 385e 043d 4c8b 293d c6c2 bcbc f3e2 21bd
000000b0: ffda 71bd e05c d4bd 5c4c 3abc 0abb fb3b
000000c0: f3ea 88bd 55f6 3dbc d9d9 20bd 5405 303d
000000d0: 90de 883d 6131 a73c 798b ffbc 1adb 153c
000000e0: b367 d7bb fd9a 483d c29a 90bb 1dab ffbc
000000f0: 2df6 37bd 0e0d 16bd b6fa 17bc 9d83 ffbc
00000100: 4856 18bc c069 ffbc 5229 d73c dce8 e4bc
00000110: abba adba bb8d 04bd ccef 1ebd ba19 0cbd
00000120: c852 32bd a27b 1f3d 4b3b ebbc dde1 42bc
00000130: 789b 34bd 57db 9dbc fdd7 143d 72db 95bb
00000140: 7875 b23c a4bd 15bc 81b6 ecbb 2158 52bd
00000150: 9202 803d 3626 933d 9995 0fbd c407 26bd
00000160: d617 e43a 6546 eabc 1032 00bb 635a 6e3b
00000170: 8794 c0bb 7af1 363d a4f4 7a3c c34c 913c
00000180: 778c 54bd c11f 55bd 7edb 8e3c b7ec fa3c
00000190: 9d27 f63b 5abc e73b 6b3d e83c 1f3a aa3c
000001a0: e8fa fc3c 5c0f 72bc a0c3 b6bc a402 883d
000001b0: c315 01bb ce58 083d aba1 abbd 5e1a b6bd
000001c0: 98cc af3a bbbc 3bbd 591a 98bd 91a8 bbbc
000001d0: 24ef afbd 3f12 58bc e845 09bb 1b50 a63d
000001e0: e321 6f3a afc0 a53d fd3a 823d fb75 833d
000001f0: 3a71 59bc 0107 363c 783f 81bd d727 f73c
00000200: 6026 2d3c 7373 923c 9d31 2abd 0133 2f3c
00000210: b99d 9bbd 56bc c5b8 6c76 aebc 3caa 4d3d
00000220: 6c6d 8b3c e76c 0a3c 814d 583c 43b2 d2bb
00000230: 0328 713d a82c 823d f7be 69bc ed38 8b3c
00000240: 10b4 1dbc 39dc 9fbd 0b3c c1bc ee41 17bb
00000250: 42f1 97bc ecb3 a7bc ee53 35bd 6e8a 183c
00000260: 9578 3cbc 7b61 133d 93ce ac3a f2d2 99bc
00000270: 79dd 9dbc 6f8d e53c 325e f23c 969a 963c
00000280: 4b43 ed3b 5f0a a7bc 9817 5d3c 7718 17bd
00000290: 77d6 c63c a2d7 82bd a5b0 e3bc 9efc 4cbc
000002a0: 6fbc 60bd 07b9 4abd c0ac 253d 3826 e5bc
000002b0: 4fbd 9abc e0c0 afbb 720b 463d 2302 9ebc
000002c0: ab69 ac3b 2d07 8cbb 4e0d 1dbc b270 06bd
000002d0: 12f6 1dbd d591 2c3d 04a0 e63c caf5 123c
000002e0: 2f59 48bc 1f12 d2bc 66f8 80bb 01c9 3bbc
000002f0: 8774 80bd 6491 11bd 605b 743d 493d f43c
00000300: 9d0f 673d bed6 6fbc a99c c83d 6547 283c
00000310: 112d a8ba 503c eabc 741c afbd 9e00 b2bc
00000320: 06f1 4e3d 748b 5c3c 7985 123d c257 013c
00000330: d43a 353d 6723 4d3d 4cb9 79bc d9c9 a23d
00000340: 8287 1e3d e928 ebbc a0e4 1abc 5c7a 40bd
00000350: 9713 613d 3892 0dbd 60ec 87bd beef 4cbd
00000360: 0c74 d3bc 5750 323d 2863 853c 128f 3cbd
00000370: 4c74 063d 2d60 023d c6a8 8e3c 8936 40bc
00000380: 9098 01bc af4f 2a3c a726 78bc 8d3f 033d
00000390: c3ba fc3c 0184 773c 59f1 10bc 251b 1abb
000003a0: 4f26 c63c 5674 03bd 9d92 1bbc c4de 483c
000003b0: 1a20 783c 32bd 4d3d f3a6 6b3d 3deb a03c
000003c0: 3f26 993a a583 babc a1e3 6f3c 1125 ffbc
000003d0: 8797 443c 6faa 263c 7264 14bd b022 3d3d
000003e0: d151 1cbc 0d30 43bd 1bda 913c cfa6 ebbc
000003f0: 2b69 f63c 652e 86bb bad6 4d3d 4498 39bc

fc.0.bias f4 [120]
0.057269808 -0.051472574 0.0030147117 -0.022370249 0.026500598 0.04863666 -0.006975972 0.049662825
-0.008200366 -0.030846233 0.021256011 0.023717126 -0.016123516 0.04467866 0.042064074 0.008572825
0.0166139 0.04143389 0.022059532 0.066864915 0.07725215 -0.044438172 0.036764264 0.024637181
0.019429777 -0.0046052625 -0.017573923 -0.011813377 0.010678703 0.028893683 -0.024703814 -0.037904967
-0.0032928137 -0.03512823 -0.027930321 0.06384519 -0.023697 -0.017304476 0.065210104 0.0031823136
-0.017784353 0.044150326 -0.00018175297 0.011184977 -0.008079739 0.004071103 0.04633171 0.00199525
0.020177491 -0.018817887 0.0454777 0.0048014796 0.040044505 -0.04581634 0.00077441253 0.063601844
0.06184055 0.039033417 -0.016590744 0.052956346 -0.0047289734 0.012190049 -0.011964427 -0.029515289
0.012380687 0.06697342 -0.05774457 -0.0410513 -0.036855087 0.012349545 0.044815615 0.029994618
0.033880148 0.027436204 -0.022914484 -0.03367451 0.023106245 0.033858538 -0.0049675717 0.002453037
0.045462523 0.0054292083 -0.025082065 0.012084185 -0.06293517 0.0075457417 -0.030587176 0.00068694976
0.056561854 0.058502827 -0.0035387597 0.025394123 0.066739574 -0.060634993 -0.04967825 -0.022375993
0.011062712 0.049833834 0.086380795 -0.030565042 -0.043780208 -0.004143825 -0.011239273 0.050073735
0.02339254 0.021327592 0.028440176 -0.042843472 -0.0071091796 0.010069556 -0.0025610544 -0.017054833
0.023200348 -0.0064214435 -0.024644468 0.026318895 0.028106079 0.010195284 0.04643801 0.07639131
00000000: bf93 6a3d e8d4 52bd 7892 453b d041 b7bc
00000010: c817 d93c 3c37 473d b296 e4bb 3f6b 4b3d
00000020: d45a 06bc 3db1 fcbc 1621 ae3c 6b4a c23c
00000030: 7715 84bc f800 373d 614b 2c3d 0975 0c3c
00000040: e019 883c 95b6 293d 31b6 b43c 79f0 883d
00000050: 6036 9e3d cd04 36bd 2096 163d ead3 c93c
00000060: 322b 9f3c bee7 96bb 30f7 8fbc e58c 41bc
00000070: baf5 2e3c 72b2 ec3c a75f cabc 3d42 1bbd
00000080: 3fcc 57bb 9ee2 0fbd 21ce e4bc 44c1 823d
00000090: 3620 c2bc 1ec2 8dbc e08c 853d 5d8e 503b
000000a0: 7eb0 91bc f9d6 343d f194 3eb9 3241 373c
000000b0: e260 04bc e366 853b 52c6 3d3d bdc2 023b
000000c0: 444b a53c f827 9abc d346 3a3d bb55 9d3b
000000d0: b505 243d eaa9 3bbd f201 4b3a af41 823d
000000e0: 844c 7d3d 81e1 1f3d 50e9 87bc c1e8 583d
000000f0: 81f5 9abb c5b8 473c 7206 44bc 0cca f1bc
00000100: 5dd8 4a3c 5c29 893d 9285 6cbd 6825 28bd
00000110: 5cf5 16bd bf55 4a3c 9490 373d 46b7 f53c
00000120: e9c5 0a3d e4c1 e03c 28b7 bbbc 48ee 09bd
00000130: 4f49 bd3c 40af 0a3d 03c7 a2bb 22c3 203b
00000140: e936 3a3d 80e7 b13b e778 cdbc bffc 453c
00000150: 28e4 80bd 4542 f73b f591 fabc 6b14 343a
00000160: 67ad 673d a9a0 6f3d 89ea 67bb 5607 d03c
00000170: c2ae 883d 665c 78bd 6c7b 4bbd dc4d b7bc
00000180: 6140 353c 901e 4c3d 6ae8 b03d 8a63 fabc
00000190: e052 33bd ecc8 87bb ed24 38bc 1e1a 4d3d
000001a0: b6a1 bf3c 34b7 ae3c 5ffb e83c a37c 2fbd
000001b0: 1ff4 e8bb c7fa 243c 5dd7 27bb 94b6 8bbc
000001c0: a80e be3c f96a d2bb 32e3 c9bc b99a d73c
000001d0: b83e e63c 1f0a 273c c835 3e3d 0c73 9c3d

fc.2.weight f4 [84, 120]
-0.0128231 0.038936544 -0.035474136 0.025399389 0.03956754 -0.04584821 -0.065518126 0.08346689
-0.032707024 0.1199263 0.08063127 -0.07823627 -0.09207995 -0.036426015 -0.024512539 -0.038649075
-0.03256669 0.07747468 -0.027582774 -0.04194749 -0.07894744 0.014459508 -0.08963038 0.06970594
0.04065482 0.026684426 -0.013487273 -0.093553185 -0.06900728 -0.04230746 0.034550067 0.038246546
0.019402457 -0.10101925 0.044875547 -0.06376915 0.09459237 0.06493456 -0.09257722 -0.04859909
0.018574964 -0.031952966 -0.03271997 -0.014657084 0.012580404 0.06427007 -0.0058152867 0.010354482
0.003370251 -0.09329521 -0.078586556 -0.0629129 -0.024530904 0.06173535 0.010023666 0.011033242
-0.04490318 -0.06142972 0.07991564 -0.047097683 -0.087166116 -0.060536724 -0.061174404 -0.08594221
0.024581356 0.0039684097 0.09298633 -0.081946865 0.036900014 0.06724985 0.048663303 -0.04259451
-0.009071698 -0.05079675 0.06359602 0.037313107 0.021493824 0.06509366 -0.07816757 0.07230811
0.07147654 0.038706403 0.046283744 -0.008627903 -0.023649571 0.01222551 0.022684718 -0.04657424
0.08125967 -0.011212204 -0.06591985 0.024128841 0.05530114 0.07242903 0.041563634 0.026837312
-0.027576169 -0.13657765 0.00015687507 0.031883243 -0.10436406 -0.06003905 0.03450124 -0.0768237
0.080596134 -0.033342637 0.08077402 -0.08353706 0.020458447 0.0376843 0.07477266 -0.016798649
0.03837522 -0.04481443 -0.035600353 0.03648639 0.060349748 -0.07026271 -0.0085636 -0.010756294
0.03444082 0.017823655 0.00543356 -0.013055454 -0.044900104 -0.01725344 0.037181605 -0.011977955
-0.0105410665 -0.0035624448 0.049995724 -0.1081834 -0.049161024 -0.05529073 -0.04985044 0.07776713
0.026251625 0.040992983 -0.061741002 0.043875363 -0.093682125 -0.11211782 0.057809845 0.017538328
-0.017508853 -0.050321274 0.028632522 -0.0835996 0.030877015 -0.12286959 0.04206566 0.061828878
0.084257 0.11435825 0.07067093 -0.024354195 0.0896797 0.059954967 -0.054160126 -0.055839516
0.10452594 -0.052706562 0.13094926 0.06981015 -0.07625045 0.02295879 0.118255846 -0.057146657
-0.049220175 0.025550278 -0.05523975 0.051679503 0.06074807 -0.11202116 -0.13502721 0.08386318
0.038575027 -0.07270158 -0.035864614 -0.03728216 0.04118171 -0.07899721 0.08528142 0.003127583
-0.01649934 -0.026957098 0.013778213 0.031182513 -0.03071562 0.12326575 0.094974674 -0.11529271
-0.024930637 0.091357954 -0.092135325 0.034362618 -0.089077644 0.09647218 -0.101774365 0.0019677985
0.10285928 0.06761316 -0.05303671 -0.03640895 0.0833426 -0.09587912 0.013818422 -0.018197948
0.11693869 -0.013012985 -0.0147198625 0.028608296 0.024735432 -0.0021276395 0.06246383 0.031921484
0.05895365 0.0049515762 -0.05207246 -0.055966947 -0.043914717 -0.050074924 -0.03253549 0.081833825
-0.021532139 -0.075127296 0.050281715 -0.038803715 0.019278247 -0.1335798 0.101902954 0.06794092
0.03665227 0.050954428 0.06380172 -0.072740324 0.030876813 -0.027236413 0.025064418 0.06271307
-0.04726465 -0.10744175 0.046043158 -0.005121924 -0.007316897 0.048211847 -0.052179046 -0.076113164
0.058309413 0.011227131 0.08096339 -0.09851402 -0.10214977 0.030612988 -0.048599616 0.028940186
00000000: fb17 52bc ed7b 1f3d 544d 11bd 6112 d03c
00000010: 9311 223d 55cb 3bbd 5e2e 86bd b0f0 aa3d
00000020: cdf7 05bd ec9b f53d 0222 a53d 563a a0bd
00000030: 6a94 bcbd 7233 15bd 85ce c8bc 7e4e 1ebd
00000040: a664 05bd 0cab 9e3d 45f5 e1bc 22d1 2bbd
00000050: 32af a1bd 92e7 6c3c 2290 b7bd fdc1 8e3d
00000060: ab85 263d 4c99 da3c b9f9 5cbc d098 bfbd
00000070: b053 8dbd 964a 2dbd 5f84 0d3d 69a8 1c3d
00000080: e7f1 9e3c 2ee3 cebd 6ccf 373d 6699 82bd
00000090: a5b9 c13d 69fc 843d 2099 bdbd d70f 47bd
000000a0: 862a 983c 1de1 02bd 6005 06bd 4424 70bc
000000b0: 0a1e 4e3c 07a0 833d 298e bebb d8a5 293c
000000c0: 6edf 5c3b 8f11 bfbd fdf1 a0bd 7ad8 80bd
000000d0: 09f5 c8bc 35de 7c3d 4d3a 243c c5c4 343c
000000e0: 66ec 37bd bb9d 7bbd d0aa a33d 80e9 40bd
000000f0: 2684 b2bd 5bf5 77bd 0392 7abd 7802 b0bd
00000100: d75e c93c 6f09 823b 9e6f be3d c2d3 a7bd
00000110: 7824 173d 4aba 893d 2c53 473d 9577 2ebd
00000120: 76a1 14bc 4110 50bd a13e 823d a1d5 183d
00000130: d113 b03c d34f 853d 5216 a0bd 4616 943d
00000140: 4b62 923d 9b8a 1e3d 0694 3d3d 0c5c 0dbc
00000150: bfbc c1bc 814d 483c 4dd5 b93c a1c4 3ebd
00000160: 786b a63d 64b3 37bc fc00 87bd d9a9 c53c
00000170: 7383 623d ac55 943d a13e 2a3d ecd9 db3c
00000180: 6be7 e1bc 03db 0bbe d57e 2439 0198 023d
00000190: d3bc d5bd 82eb 75bd 2c51 0d3d be55 9dbd
000001a0: 960f a53d 4a92 08bd d96c a53d 7a15 abbd
000001b0: 7998 a73c da5a 1a3d 6922 993d 529d 89bc
000001c0: 562f 1d3d 568f 37bd add1 11bd c172 153d
000001d0: 4c31 773d e5e5 8fbd 574e 0cbc 2b3b 30bc
000001e0: d111 0d3d ea02 923c 010c b23b 8be6 55bc
000001f0: 2ce9 37bd 1657 8dbc bd4b 183d 2f3f 44bc
00000200: 70b4 2cbc e877 69bb 51c8 4c3d 428f ddbd
00000210: 125d 49bd 8878 62bd fa2f 4cbd 6044 9f3d
00000220: a60d d73c 42e8 273d 22e4 7cbd a7b6 333d
00000230: 6adc bfbd 079e e5bd 04ca 6c3d 8aac 8f3c
00000240: ba6e 8fbc ae1d 4ebd c08e ea3c 4436 abbd
00000250: cbf1 fc3c 0da3 fbbd 0b4d 2c3d 4740 7d3d
00000260: ef8e ac3d a834 ea3d ecbb 903d 7382 c7bc
00000270: fea9 b73d 5793 753d 02d7 5dbd fab7 64bd
00000280: b211 d63d d6e2 57bd 9017 063e a0f8 8e3d
00000290: 3229 9cbd 1314 bc3c 1f30 f23d 9d12 6abd
000002a0: 189b 49bd d14e d13c 1343 62bd e3ad 533d
000002b0: f8d2 783d 5a6b e5bd 9344 0abe 75c0 ab3d
000002c0: d900 1e3d 91e4 94bd c6e6 12bd 2eb5 18bd
000002d0: 27ae 283d 4ac9 a1bd 06a8 ae3d 23f8 4c3b
000002e0: a029 87bc 22d5 dcbc 04be 613c 7872 ff3c
000002f0: 539f fbbc c172 fc3d 1582 c23d 961e ecbd
00000300: 563b ccbc e119 bb3d 72b1 bcbd d1bf 0c3d
00000310: 576e b6bd 3593 c53d 146f d0bd 2ef6 003b
00000320: e3a7 d23d c578 8a3d 053d 59bd 8d21 15bd
00000330: 86af aa3d 465c c4bd aa66 623c dd13 95bc
00000340: 8d7d ef3d 6a34 55bc 942b 71bc f25b ea3c
00000350: f6a1 ca3c de6f 0bbb 13da 7f3d 1ac0 023d
00000360: 6279 713d d540 a23b ef49 55bd 993d 65bd
00000370: ebdf 33bd 5d1b 4dbd ef43 05bd 7e98 a73d
00000380: 2b64 b0bc 57dc 99bd 33f4 4d3d a5f0 1ebd
00000390: 6aed 9d3c 25c9 08be 7fb2 d03d 9c24 8b3d
000003a0: b120 163d 97b5 503d 7aaa 823d e1f8 94bd
000003b0: 5ff1 fc3c e61e dfbc e553 cd3c b66f 803d
000003c0: 9498 41bd 6c0a dcbd c097 3c3d d0d5 a7bb
000003d0: 95c2 efbb c979 453d b2b9 55bd 38e1 9bbd
000003e0: dad5 6e3d 00f2 373c 22d0 a53d b8c1 c9bd
000003f0: e633 d1bd 17c8 fa3c 6410 47bd f813 ed3c

fc.2.bias f4 [84]
0.0038668422 -0.034191128 0.004011149 0.027827384 -0.07137352 -0.06130012 -0.03368638 0.09129673
-0.037718285 0.18977702 0.008209886 0.103478245 -0.08579912 -0.03206976 0.0013294973 -0.095016204
0.05619866 -0.01911284 0.023960672 -0.020074448 0.047473837 -0.0006258954 0.117157705 0.12348723
0.09658236 0.14636575 -0.054218877 0.109230265 0.058286343 0.07545916 0.012879579 0.20958765
0.085777976 -0.012448558 -0.04412324 0.13272129 -0.041763067 -0.026528608 0.12519759 0.07410803
0.07959368 -0.094172 0.116901 0.038011733 -0.08974147 -0.068026476 -0.09986967 0.036098592
0.11782419 -0.043396838 0.016624833 -0.07669544 -0.088214 0.12379208 -0.06075469 0.10794813
-0.02471719 -0.031931087 -0.028244365 0.016395908 0.10839919 0.00573659 0.10860951 0.008196153
0.011544897 -0.096217066 -0.043598622 0.004124843 -0.03606377 -0.095230535 0.073079936 -0.014221058
0.12692356 -0.11554284 -0.08961239 0.09334806 -0.022136878 0.00039429558 0.13380416 -0.08188272
0.058488496 0.05292915 0.043760043 0.058628976
00000000: d96a 7d3b ff0b 0cbd f56f 833b 41f6 e33c
00000010: 482c 92bd d615 7bbd bbfa 09bd c8f9 ba3d
00000020: 7d7e 1abd e854 423e c282 063c 67ec d33d
00000030: 73b7 afbd 955b 03bd 8742 ae3a db97 c2bd
00000040: 9130 663d 8892 9cbc 2c49 c43c 2b73 a4bc
00000050: ed73 423d 2113 24ba 61f0 ef3d dfe6 fc3d
00000060: f9cc c53d e7e0 153e 9d14 5ebd 1eb4 df3d
00000070: a9bd 6e3d 558a 9a3d df04 533c 259e 563e
00000080: 5dac af3d 09f5 4bbc 92ba 34bd 17e8 073e
00000090: c00f 2bbd 8652 d9bc cc33 003e f3c5 973d
000000a0: 0302 a33d 40dd c0bd cb69 ef3d 31b2 1b3d
000000b0: 60ca b7bd 7751 8bbd 7888 ccbd 1edc 133d
000000c0: cf4d f13d e2c0 31bd cd30 883c 8012 9dbd
000000d0: 8ba9 b4bd b486 fd3d e9d9 78bd e913 dd3d
000000e0: b47b cabc 2cca 02bd ba60 e7bc b650 863c
000000f0: 6500 de3d 01fa bb3b aa6e de3d 2849 063c
00000100: cf26 3d3c 740d c5bd 7894 32bd b129 873b
00000110: 9bb7 13bd 3a08 c3bd efaa 953d 71ff 68bc
00000120: 40f8 013e b9a1 ecbd b386 b7bd 452d bf3d
00000130: 6658 b5bc 75b9 ce39 f503 093e 21b2 a7bd
00000140: a291 6f3d 3dcc 583d bb3d 333d f024 703d

fc.4.weight f4 [10, 84]
0.06202443 0.06602155 -0.11118406 0.12778802 0.0924897 -0.05264616 -0.0005933465 0.20846643
0.028964797 -0.14791042 -0.16132723 -0.1497172 -0.1467238 -0.16887619 -0.051358957 -0.117833205
-0.26106426 0.19652772 -0.18169203 0.045364592 0.024734471 -0.0059529464 -0.08142522 -0.02913625
-0.08182906 0.26838017 0.108476125 -0.2114673 0.22526906 -0.15021054 -0.004314739 0.17969519
-0.22790225 -0.14092985 0.080885604 0.22443318 -0.14566095 0.09588238 0.05142107 -0.029618233
0.061871566 -0.062285718 0.0646449 -0.0047890884 -0.015904484 0.16885689 0.13220201 0.20382142
0.12290687 0.03528086 -0.20899448 -0.15306473 -0.0467686 0.12124201 -0.11465049 0.040976845
-0.07200621 0.13517009 0.10576965 -0.20475194 -0.07630693 0.055647556 0.13317302 -0.008986615
-0.0865754 -0.100781105 0.15582281 -0.043604422 0.033468004 -0.1317313 0.0077231405 0.21689855
-0.06734901 0.11863908 -0.060001463 0.2885016 -0.045297287 0.31111464 -0.13047273 0.036755193
-0.1313305 -0.16013753 -0.18544081 -0.19700043 0.041380145 0.16207372 -0.12800698 0.24994166
0.069228135 -0.06294527 -0.13678223 -0.27761465 0.17354065 -0.34943074 0.0747157 -0.06831319
0.28579876 -0.15759684 0.12241985 -0.11212042 0.28182736 -0.04883803 -0.16522542 0.04850213
-0.28439462 0.3161279 -0.26440662 -0.4608329 0.083132185 -0.09633953 0.16740501 0.07038701
-0.017429024 0.14481066 -0.01764366 -0.051854983 0.01843506 0.16198848 -0.058883797 -0.18072292
-0.2786756 0.14061049 0.12361768 0.114768825 -0.1438298 0.084968545 -0.29040274 0.0708291
0.27508155 -0.10549597 -0.05139771 -0.030396637 0.012615905 0.019697307 0.098197654 0.10027314
0.31909952 0.17771257 -0.122648194 -0.11706413 -0.05117879 -0.1011436 -0.1518816 0.22937429
-0.061350215 -0.1820218 -0.039494995 0.18155582 0.082412854 0.18162368 0.20792799 0.0026230265
-0.11339067 0.021484656 -0.058258805 -0.025087798 -0.2322657 0.08195297 -0.077249 0.072528936
0.16688094 0.12211373 0.16270249 0.005367725 -0.07774914 -0.019362235 -0.05645907 -0.12637804
-0.051056087 -0.20549172 -0.077386856 -0.06353714 -0.18886673 -0.20620322 -0.095372215 0.00660115
-0.09881313 0.15744108 0.20211591 0.042186607 -0.09261735 0.19245313 -0.05019548 0.20060067
0.18885273 -0.113022275 -0.06015626 0.16923632 0.039899834 -0.004937673 -0.110969245 0.09148335
0.15511714 0.070547 -0.28048384 0.038415894 -0.12983675 -0.1249955 0.13051608 0.14094543
-0.14901394 0.07398457 0.19827195 0.080602676 -0.063052185 0.17717746 -0.14452471 -0.2290282
-0.15835704 -0.17293605 0.13297527 -0.1031441 -0.2789691 -0.012682349 -0.12062122 -0.20577325
0.06120776 0.012924713 0.05172921 -0.14553697 -0.07891275 0.045909908 -0.03280076 0.15763438
0.13978717 -0.060068056 0.13797317 -0.09597019 0.06052815 0.21954797 0.18645282 0.027932826
0.123737626 -0.10404907 -0.16827403 -0.21740839 -0.12446972 0.14980863 0.15262012 0.04683019
0.017932381 0.1307118 0.03533904 0.17899482 -0.071969554 0.056495544 -0.11693073 0.0494565
0.20348948 0.26970625 0.004588467 0.0680891 0.054889016 0.09947247 0.19210465 -0.23826218
00000000: 540d 7e3d 4e36 873d 78b4 e3bd ddda 023e
00000010: 3d6b bd3d 80a3 57bd cf8a 1bba 3978 553e
00000020: 9547 ed3c d475 17be f732 25be 774f 19be
00000030: c43e 16be e1ed 2cbe c55d 52bd 8952 f1bd
00000040: 37aa 85be 903e 493e 7a0d 3abe 39d0 393d
00000050: f29f ca3c ef10 c3bb 44c2 a6bd 25af eebc
00000060: ff95 a7bd 2069 893e bb28 de3d e28a 58be
00000070: efac 663e cbd0 19be a762 8dbb 0402 383e
00000080: 355f 69be ea4f 10be 5aa7 a53d d0d1 653e
00000090: 2528 15be fb5d c43d e69e 523d f0a1 f2bc
000000a0: 0a6d 7d3d 4f1f 7fbd 8c64 843d c9ed 9cbb
000000b0: 1f4a 82bc d2e8 2c3e f75f 073e 90b6 503e
000000c0: 99b6 fb3d aa82 103d a602 56be 00bd 1cbe
000000d0: 6e90 3fbd bb4d f83d e0cd eabd 56d7 273d
000000e0: fe77 93bd 076a 0a3e c29d d83d 7eaa 51be
000000f0: cf46 9cbd b1ee 633d 825e 083e 983c 13bc
00000100: 714e b1bd 5366 cebd 0490 1f3e 8d9a 32bd
00000110: bf15 093d 92e4 06be 6612 fd3b a71a 5e3e
00000120: 47ee 89bd 0cf9 f23d 18c4 75bd 7bb6 933e
00000130: a689 39bd 6b4a 9f3e a59a 05be 9d8c 163d
00000140: 817b 06be 18fb 23be 32e4 3dbe 7bba 49be
00000150: 3a7e 293d a7f6 253e 4314 03be b5f0 7f3e
00000160: 7bc7 8d3d 73e9 80bd a410 0cbe 8223 8ebe
00000170: a4b4 313e 96e8 b2be 8b04 993d c9e7 8bbd
00000180: 3754 923e 1161 21be 42b7 fa3d 649f e5bd
00000190: ad4b 903e 630a 48bd da30 29be 2baa 463d
000001a0: 2c9c 91be 84db a13e 4e60 87be 4af2 ebbe
000001b0: 3541 aa3d a94d c5bd 386c 2b3e 1127 903d
000001c0: 50c7 8ebc 3f49 143e 7089 90bc e465 54bd
000001d0: 1f05 973c 4fe0 253e 2330 71bd 6e0f 39be
000001e0: 91ae 8ebe 32fc 0f3e 442b fd3d eb0b eb3d
000001f0: 1e48 13be fd03 ae3d abaf 94be d90e 913d
00000200: 7dd7 8c3e 450e d8bd 6886 52bd 5e02 f9bc
00000210: f1b2 4e3c 3f5c a13c da1b c93d 015c cd3d
00000220: 0361 a33e 49fa 353e fa2e fbbd 52bf efbd
00000230: daa0 51bd 6024 cfbd da86 1bbe 18e1 6a3e
00000240: 5d4a 7bbd ec63 3abe 81c5 21bd c5e9 393e
00000250: 12c8 a83d 8ffb 393e 13eb 543e 15e7 2b3b
00000260: 5e39 e8bd 9700 b03c c9a0 6ebd ed84 cdbc
00000270: 0fd7 6dbe f5d6 a73d b934 9ebd 0d8a 943d
00000280: d6e2 2a3e c316 fa3d 7b9b 263e bee3 af3b
00000290: f13a 9fbd 8d9d 9ebc a041 67bd 3f69 01be
000002a0: 3020 51bd 6c6c 52be 007d 9ebd c31f 82bd
000002b0: 4866 41be f026 53be 8252 c3bd 764e d83b
000002c0: 8a5e cabd 3c38 213e 79f7 4e3e ddcb 2c3d
000002d0: 2aae bdbd 6f12 453e c799 4dbd 436a 4d3e
000002e0: 9c62 413e 3978 e7bd 6966 76bd 494c 2d3e
000002f0: 026e 233d 34cc a1bb d843 e3bd 9f5b bb3d
00000300: 07d7 1e3e f27a 903d 949b 8fbe fc59 1d3d
00000310: edf3 04be a4fd ffbd 02a6 053e 0054 103e
00000320: 1c97 18be 3985 973d cd07 4b3e 0413 a53d
00000330: 8121 81bd 026e 353e 49fe 13be 5e86 6abe
00000340: 5928 22be 2616 31be ab2a 083e 373d d3bd
00000350: 0ad5 8ebe a1c9 4fbc 4208 f7bd 39b6 52be
00000360: fdb4 7a3d 2dc2 533c 02e2 533d a507 15be
00000370: 029d a1bd 070c 3c3d 175a 06bd e86a 213e
00000380: 5e24 0f3e ec09 76bd d748 0d3e 058c c4bd
00000390: 5eec 773d 2fd1 603e 7ded 3e3e 62d3 e43c
000003a0: 276a fd3d ae17 d5bd 0750 2cbe 4ea0 5ebe
000003b0: fbe9 febd 6f67 193e 7348 1c3e 03d1 3f3d
000003c0: eee6 923c 50d9 053e abbf 103d 6b4a 373e
000003d0: c664 93bd df67 673d 6179 efbd e692 4a3d
000003e0: 8c5f 503e f016 8a3e da5a 963b 4c72 8b3d
000003f0: 4ed3 603d 39b8 cb3d 15b7 443e 00fb 73be

fc.4.bias f4 [10]
0.08186722 -0.21593244 -0.032067813 -0.09828288 0.17623891 0.029511554 0.10471846 -0.12853248
0.16860731 -0.2157359
00000000: 00aa a73d 651d 5dbe 8a59 03bd 8948 c9bd
00000010: f977 343e 37c2 f13c a276 d63d 059e 03be
00000020: 65a7 2c3e dfe9 5cbe
